…
    (conv11): Conv2d(16, 16, kernel_size=(3, 3), stride=(1, 1), padding=(1, 1))
    (bn11): BatchNorm2d(16, eps=1e-05, momentum=0.1, affine=True, track_running_stats=True)
    (relu11): ReLU()
    (conv12): Conv2d(16, 16, kernel_size=(3, 3), stride=(1, 1), padding=(1, 1))
    (bn12): BatchNorm2d(16, eps=1e-05, momentum=0.1, affine=True, track_running_stats=True)
    (relu12): ReLU()
  )
  (lin): Linear(in_features=784, out_features=10, bias=True)
)
----------------------------------------------------------------
        Layer (type)               Output Shape         Param #
================================================================
            Conv2d-1            [-1, 4, 28, 28]              40
       BatchNorm2d-2            [-1, 4, 28, 28]               8
              ReLU-3            [-1, 4, 28, 28]               0
            Conv2d-4           [-1, 16, 28, 28]             592
       BatchNorm2d-5           [-1, 16, 28, 28]              32
              ReLU-6           [-1, 16, 28, 28]               0
            Conv2d-7           [-1, 16, 28, 28]           2,320
       BatchNorm2d-8           [-1, 16, 28, 28]              32
              ReLU-9           [-1, 16, 28, 28]               0
        MaxPool2d-10           [-1, 16, 14, 14]               0
           Conv2d-11           [-1, 16, 14, 14]           2,320
      BatchNorm2d-12           [-1, 16, 14, 14]              32
             ReLU-13           [-1, 16, 14, 14]               0
           Conv2d-14           [-1, 16, 14, 14]           2,320
      BatchNorm2d-15           [-1, 16, 14, 14]              32
             ReLU-16           [-1, 16, 14, 14]               0
           Conv2d-17           [-1, 16, 14, 14]           2,320
      BatchNorm2d-18           [-1, 16, 14, 14]              32
             ReLU-19           [-1, 16, 14, 14]               0
        MaxPool2d-20             [-1, 16, 7, 7]               0
           Conv2d-21             [-1, 16, 7, 7]           2,320
      BatchNorm2d-22             [-1, 16, 7, 7]              32
             ReLU-23             [-1, 16, 7, 7]               0
           Conv2d-24             [-1, 16, 7, 7]           2,320
      BatchNorm2d-25             [-1, 16, 7, 7]              32
             ReLU-26             [-1, 16, 7, 7]               0
           Conv2d-27             [-1, 16, 7, 7]           2,320
      BatchNorm2d-28             [-1, 16, 7, 7]              32
             ReLU-29             [-1, 16, 7, 7]               0
           Conv2d-30             [-1, 16, 7, 7]           2,320
      BatchNorm2d-31             [-1, 16, 7, 7]              32
             ReLU-32             [-1, 16, 7, 7]               0
           Conv2d-33             [-1, 16, 7, 7]           2,320
      BatchNorm2d-34             [-1, 16, 7, 7]              32
             ReLU-35             [-1, 16, 7, 7]               0
           Conv2d-36             [-1, 16, 7, 7]           2,320
      BatchNorm2d-37             [-1, 16, 7, 7]              32
             ReLU-38             [-1, 16, 7, 7]               0
           Linear-39                   [-1, 10]           7,850
================================================================
Total params: 32,042
Trainable params: 32,042
Non-trainable params: 0
----------------------------------------------------------------
Input size (MB): 0.00
Forward/backward pass size (MB): 1.00
Params size (MB): 0.12
Estimated Total Size (MB): 1.12
----------------------------------------------------------------
Epoch: [ 1/ 10], Step: [ 100/ 600], Loss: 1.8423
…
Epoch:[3/10], accuracy: 96 %
Epoch:[4/10], accuracy: 97 %
Epoch:[5/10], accuracy: 97 %
Epoch:[6/10], accuracy: 97 %
Epoch:[7/10], accuracy: 97 %
Epoch:[8/10], accuracy: 97 %
Epoch:[9/10], accuracy: 98 %
Epoch:[10/10], accuracy: 98 %
total :10000, correct : 9805
Accuracy of the model on the 10000 test images:  98.049995 %
learning rate: 0.001000
enable cuda is 1 device is cuda
----------------------------------------------------------------
        Layer (type)               Output Shape         Param #
================================================================
            Conv2d-1            [-1, 4, 28, 28]              40
       BatchNorm2d-2            [-1, 4, 28, 28]               8
              ReLU-3            [-1, 4, 28, 28]               0
         MaxPool2d-4            [-1, 4, 14, 14]               0
            Conv2d-5           [-1, 16, 14, 14]             592
       BatchNorm2d-6           [-1, 16, 14, 14]              32
              ReLU-7           [-1, 16, 14, 14]               0
            Conv2d-8           [-1, 16, 14, 14]           2,320
       BatchNorm2d-9           [-1, 16, 14, 14]              32
             ReLU-10           [-1, 16, 14, 14]               0
           Conv2d-11           [-1, 16, 14, 14]           2,320
      BatchNorm2d-12           [-1, 16, 14, 14]              32
             ReLU-13           [-1, 16, 14, 14]               0
           Conv2d-14           [-1, 16, 14, 14]           2,320
      BatchNorm2d-15           [-1, 16, 14, 14]              32
             ReLU-16           [-1, 16, 14, 14]               0
           Conv2d-17           [-1, 16, 14, 14]           2,320
      BatchNorm2d-18           [-1, 16, 14, 14]              32
             ReLU-19           [-1, 16, 14, 14]               0
           Conv2d-20           [-1, 16, 14, 14]           2,320
      BatchNorm2d-21           [-1, 16, 14, 14]              32
             ReLU-22           [-1, 16, 14, 14]               0
           Conv2d-23           [-1, 16, 14, 14]           2,320
      BatchNorm2d-24           [-1, 16, 14, 14]              32
             ReLU-25           [-1, 16, 14, 14]               0
           Conv2d-26           [-1, 16, 14, 14]           2,320
      BatchNorm2d-27           [-1, 16, 14, 14]              32
             ReLU-28           [-1, 16, 14, 14]               0
           Conv2d-29           [-1, 16, 14, 14]           2,320
      BatchNorm2d-30           [-1, 16, 14, 14]              32
             ReLU-31           [-1, 16, 14, 14]               0
           Conv2d-32           [-1, 16, 14, 14]           2,320
      BatchNorm2d-33           [-1, 16, 14, 14]              32
             ReLU-34           [-1, 16, 14, 14]               0
           Conv2d-35           [-1, 16, 14, 14]           2,320
      BatchNorm2d-36           [-1, 16, 14, 14]              32
             ReLU-37           [-1, 16, 14, 14]               0
           Conv2d-38           [-1, 16, 14, 14]           2,320
      BatchNorm2d-39           [-1, 16, 14, 14]              32
             ReLU-40           [-1, 16, 14, 14]               0
           Conv2d-41           [-1, 16, 14, 14]           2,320
      BatchNorm2d-42           [-1, 16, 14, 14]              32
             ReLU-43           [-1, 16, 14, 14]               0
           Conv2d-44           [-1, 16, 14, 14]           2,320
      BatchNorm2d-45           [-1, 16, 14, 14]              32
             ReLU-46           [-1, 16, 14, 14]               0
           Conv2d-47           [-1, 16, 14, 14]           2,320
      BatchNorm2d-48           [-1, 16, 14, 14]              32
             ReLU-49           [-1, 16, 14, 14]               0
           Conv2d-50           [-1, 16, 14, 14]           2,320
      BatchNorm2d-51           [-1, 16, 14, 14]              32
             ReLU-52           [-1, 16, 14, 14]               0
           Conv2d-53           [-1, 16, 14, 14]           2,320
      BatchNorm2d-54           [-1, 16, 14, 14]              32
             ReLU-55           [-1, 16, 14, 14]               0
           Linear-56                   [-1, 10]          31,370
================================================================
Total params: 69,674
Trainable params: 69,674
Non-trainable params: 0
----------------------------------------------------------------
Input size (MB): 0.00
Forward/backward pass size (MB): 1.30
Params size (MB): 0.27
Estimated Total Size (MB): 1.57
----------------------------------------------------------------
Epoch: [ 1/ 10], Step: [ 100/ 600], Loss: 1.9422
…
  (lin9): Linear(in_features=4096, out_features=4096, bias=True)
  (relu9): ReLU()
  (lin10): Linear(in_features=4096, out_features=4096, bias=True)
  (relu10): ReLU()
  (lin11): Linear(in_features=4096, out_features=4096, bias=True)
  (relu11): ReLU()
  (lin12): Linear(in_features=4096, out_features=4096, bias=True)
  (relu12): ReLU()
  (lin): Linear(in_features=4096, out_features=10, bias=True)
)
----------------------------------------------------------------
        Layer (type)               Output Shape         Param #
================================================================
            Conv2d-1            [-1, 4, 28, 28]              40
       BatchNorm2d-2            [-1, 4, 28, 28]               8
              ReLU-3            [-1, 4, 28, 28]               0
         MaxPool2d-4            [-1, 4, 14, 14]               0
            Linear-5                 [-1, 4096]       3,215,360
              ReLU-6                 [-1, 4096]               0
            Linear-7                 [-1, 4096]      16,781,312
              ReLU-8                 [-1, 4096]               0
            Linear-9                 [-1, 4096]      16,781,312
             ReLU-10                 [-1, 4096]               0
           Linear-11                 [-1, 4096]      16,781,312
             ReLU-12                 [-1, 4096]               0
           Linear-13                 [-1, 4096]      16,781,312
             ReLU-14                 [-1, 4096]               0
           Linear-15                 [-1, 4096]      16,781,312
             ReLU-16                 [-1, 4096]               0
           Linear-17                 [-1, 4096]      16,781,312
             ReLU-18                 [-1, 4096]               0
           Linear-19                 [-1, 4096]      16,781,312
             ReLU-20                 [-1, 4096]               0
           Linear-21                 [-1, 4096]      16,781,312
             ReLU-22                 [-1, 4096]               0
           Linear-23                 [-1, 4096]      16,781,312
             ReLU-24                 [-1, 4096]               0
           Linear-25                 [-1, 4096]      16,781,312
             ReLU-26                 [-1, 4096]               0
           Linear-27                   [-1, 10]          40,970
================================================================
Total params: 171,069,498
Trainable params: 171,069,498
Non-trainable params: 0
----------------------------------------------------------------
Input size (MB): 0.00
Forward/backward pass size (MB): 0.77
Params size (MB): 652.58
Estimated Total Size (MB): 653.35
----------------------------------------------------------------
Epoch: [ 1/ 10], Step: [ 100/ 600], Loss: 2.3030
…
Epoch:[3/10], accuracy: 94 %
Epoch:[4/10], accuracy: 94 %
Epoch:[5/10], accuracy: 94 %
Epoch:[6/10], accuracy: 95 %
Epoch:[7/10], accuracy: 95 %
Epoch:[8/10], accuracy: 95 %
Epoch:[9/10], accuracy: 95 %
Epoch:[10/10], accuracy: 95 %
total :10000, correct : 9596
Accuracy of the model on the 10000 test images:  95.959999 %
learning rate: 0.010000
enable cuda is 1 device is cuda
----------------------------------------------------------------
        Layer (type)               Output Shape         Param #
================================================================
            Conv2d-1            [-1, 4, 28, 28]              40
       BatchNorm2d-2            [-1, 4, 28, 28]               8
              ReLU-3            [-1, 4, 28, 28]               0
         MaxPool2d-4            [-1, 4, 14, 14]               0
            Linear-5                 [-1, 4096]       3,215,360
              ReLU-6                 [-1, 4096]               0
            Linear-7                 [-1, 4096]      16,781,312
              ReLU-8                 [-1, 4096]               0
            Linear-9                 [-1, 4096]      16,781,312
             ReLU-10                 [-1, 4096]               0
           Linear-11                 [-1, 4096]      16,781,312
             ReLU-12                 [-1, 4096]               0
           Linear-13                 [-1, 4096]      16,781,312
             ReLU-14                 [-1, 4096]               0
           Linear-15                 [-1, 4096]      16,781,312
             ReLU-16                 [-1, 4096]               0
           Linear-17                 [-1, 4096]      16,781,312
             ReLU-18                 [-1, 4096]               0
           Linear-19                 [-1, 4096]      16,781,312
             ReLU-20                 [-1, 4096]               0
           Linear-21                 [-1, 4096]      16,781,312
             ReLU-22                 [-1, 4096]               0
           Linear-23                 [-1, 4096]      16,781,312
             ReLU-24                 [-1, 4096]               0
           Linear-25                 [-1, 4096]      16,781,312
             ReLU-26                 [-1, 4096]               0
           Linear-27                 [-1, 4096]      16,781,312
             ReLU-28                 [-1, 4096]               0
           Linear-29                 [-1, 4096]      16,781,312
             ReLU-30                 [-1, 4096]               0
           Linear-31                 [-1, 4096]      16,781,312
             ReLU-32                 [-1, 4096]               0
           Linear-33                 [-1, 4096]      16,781,312
             ReLU-34                 [-1, 4096]               0
           Linear-35                 [-1, 4096]      16,781,312
             ReLU-36                 [-1, 4096]               0
           Linear-37                 [-1, 4096]      16,781,312
             ReLU-38                 [-1, 4096]               0
           Linear-39                   [-1, 10]          40,970
================================================================
Total params: 271,757,370
Trainable params: 271,757,370
Non-trainable params: 0
----------------------------------------------------------------
Input size (MB): 0.00
Forward/backward pass size (MB): 1.14
Params size (MB): 1036.67
Estimated Total Size (MB): 1037.82
----------------------------------------------------------------
Epoch: [ 1/ 10], Step: [ 100/ 600], Loss: 2.3002
…
