…
  (lin9): Linear(in_features=4096, out_features=4096, bias=True)
  (relu9): ReLU()
  (lin10): Linear(in_features=4096, out_features=4096, bias=True)
  (relu10): ReLU()
  (lin11): Linear(in_features=4096, out_features=4096, bias=True)
  (relu11): ReLU()
  (lin12): Linear(in_features=4096, out_features=4096, bias=True)
  (relu12): ReLU()
  (lin): Linear(in_features=4096, out_features=10, bias=True)
)
----------------------------------------------------------------
        Layer (type)               Output Shape         Param #
================================================================
            Conv2d-1            [-1, 4, 28, 28]              40
       BatchNorm2d-2            [-1, 4, 28, 28]               8
              ReLU-3            [-1, 4, 28, 28]               0
         MaxPool2d-4            [-1, 4, 14, 14]               0
            Conv2d-5           [-1, 16, 14, 14]             592
       BatchNorm2d-6           [-1, 16, 14, 14]              32
              ReLU-7           [-1, 16, 14, 14]               0
            Conv2d-8           [-1, 16, 14, 14]           2,320
       BatchNorm2d-9           [-1, 16, 14, 14]              32
             ReLU-10           [-1, 16, 14, 14]               0
           Conv2d-11           [-1, 16, 14, 14]           2,320
      BatchNorm2d-12           [-1, 16, 14, 14]              32
             ReLU-13           [-1, 16, 14, 14]               0
           Conv2d-14           [-1, 16, 14, 14]           2,320
      BatchNorm2d-15           [-1, 16, 14, 14]              32
             ReLU-16           [-1, 16, 14, 14]               0
           Conv2d-17           [-1, 16, 14, 14]           2,320
      BatchNorm2d-18           [-1, 16, 14, 14]              32
             ReLU-19           [-1, 16, 14, 14]               0
           Conv2d-20           [-1, 16, 14, 14]           2,320
      BatchNorm2d-21           [-1, 16, 14, 14]              32
             ReLU-22           [-1, 16, 14, 14]               0
           Linear-23                 [-1, 4096]      12,849,152
             ReLU-24                 [-1, 4096]               0
           Linear-25                 [-1, 4096]      16,781,312
             ReLU-26                 [-1, 4096]               0
           Linear-27                 [-1, 4096]      16,781,312
             ReLU-28                 [-1, 4096]               0
           Linear-29                 [-1, 4096]      16,781,312
             ReLU-30                 [-1, 4096]               0
           Linear-31                 [-1, 4096]      16,781,312
             ReLU-32                 [-1, 4096]               0
           Linear-33                   [-1, 10]          40,970
================================================================
Total params: 80,027,802
Trainable params: 80,027,802
Non-trainable params: 0
----------------------------------------------------------------
Input size (MB): 0.00
Forward/backward pass size (MB): 0.82
Params size (MB): 305.28
Estimated Total Size (MB): 306.11
----------------------------------------------------------------
Epoch: [ 1/ 10], Step: [ 100/ 600], Loss: 2.3014
…
