…
  (lin9): Linear(in_features=4096, out_features=4096, bias=True)
  (relu9): ReLU()
  (lin10): Linear(in_features=4096, out_features=4096, bias=True)
  (relu10): ReLU()
  (lin11): Linear(in_features=4096, out_features=4096, bias=True)
  (relu11): ReLU()
  (lin12): Linear(in_features=4096, out_features=4096, bias=True)
  (relu12): ReLU()
  (lin): Linear(in_features=4096, out_features=10, bias=True)
)
----------------------------------------------------------------
        Layer (type)               Output Shape         Param #
================================================================
            Conv2d-1            [-1, 4, 28, 28]              40
       BatchNorm2d-2            [-1, 4, 28, 28]               8
              ReLU-3            [-1, 4, 28, 28]               0
         MaxPool2d-4            [-1, 4, 14, 14]               0
            Linear-5                 [-1, 4096]       3,215,360
              ReLU-6                 [-1, 4096]               0
            Linear-7                 [-1, 4096]      16,781,312
              ReLU-8                 [-1, 4096]               0
            Linear-9                 [-1, 4096]      16,781,312
             ReLU-10                 [-1, 4096]               0
           Linear-11                 [-1, 4096]      16,781,312
             ReLU-12                 [-1, 4096]               0
           Linear-13                 [-1, 4096]      16,781,312
             ReLU-14                 [-1, 4096]               0
           Linear-15                 [-1, 4096]      16,781,312
             ReLU-16                 [-1, 4096]               0
           Linear-17                 [-1, 4096]      16,781,312
             ReLU-18                 [-1, 4096]               0
           Linear-19                 [-1, 4096]      16,781,312
             ReLU-20                 [-1, 4096]               0
           Linear-21                 [-1, 4096]      16,781,312
             ReLU-22                 [-1, 4096]               0
           Linear-23                 [-1, 4096]      16,781,312
             ReLU-24                 [-1, 4096]               0
           Linear-25                 [-1, 4096]      16,781,312
             ReLU-26                 [-1, 4096]               0
           Linear-27                   [-1, 10]          40,970
================================================================
Total params: 171,069,498
Trainable params: 171,069,498
Non-trainable params: 0
----------------------------------------------------------------
Input size (MB): 0.00
Forward/backward pass size (MB): 0.77
Params size (MB): 652.58
Estimated Total Size (MB): 653.35
----------------------------------------------------------------
Epoch: [ 1/ 10], Step: [ 100/ 600], Loss: 2.3081
…
