learning rate: 0.001000
enable cuda is 1 device is cuda
----------------------------------------------------------------
        Layer (type)               Output Shape         Param #
================================================================
            Conv2d-1            [-1, 4, 28, 28]              40
       BatchNorm2d-2            [-1, 4, 28, 28]               8
              ReLU-3            [-1, 4, 28, 28]               0
            Conv2d-4           [-1, 16, 28, 28]             592
       BatchNorm2d-5           [-1, 16, 28, 28]              32
              ReLU-6           [-1, 16, 28, 28]               0
            Conv2d-7           [-1, 16, 28, 28]           2,320
       BatchNorm2d-8           [-1, 16, 28, 28]              32
              ReLU-9           [-1, 16, 28, 28]               0
        MaxPool2d-10           [-1, 16, 14, 14]               0
           Conv2d-11           [-1, 16, 14, 14]           2,320
      BatchNorm2d-12           [-1, 16, 14, 14]              32
             ReLU-13           [-1, 16, 14, 14]               0
           Conv2d-14           [-1, 16, 14, 14]           2,320
      BatchNorm2d-15           [-1, 16, 14, 14]              32
             ReLU-16           [-1, 16, 14, 14]               0
           Conv2d-17           [-1, 16, 14, 14]           2,320
      BatchNorm2d-18           [-1, 16, 14, 14]              32
             ReLU-19           [-1, 16, 14, 14]               0
        MaxPool2d-20             [-1, 16, 7, 7]               0
           Conv2d-21             [-1, 16, 7, 7]           2,320
      BatchNorm2d-22             [-1, 16, 7, 7]              32
             ReLU-23             [-1, 16, 7, 7]               0
           Conv2d-24             [-1, 16, 7, 7]           2,320
      BatchNorm2d-25             [-1, 16, 7, 7]              32
             ReLU-26             [-1, 16, 7, 7]               0
           Conv2d-27             [-1, 16, 7, 7]           2,320
      BatchNorm2d-28             [-1, 16, 7, 7]              32
             ReLU-29             [-1, 16, 7, 7]               0
           Conv2d-30             [-1, 16, 7, 7]           2,320
      BatchNorm2d-31             [-1, 16, 7, 7]              32
             ReLU-32             [-1, 16, 7, 7]               0
           Conv2d-33             [-1, 16, 7, 7]           2,320
      BatchNorm2d-34             [-1, 16, 7, 7]              32
             ReLU-35             [-1, 16, 7, 7]               0
           Conv2d-36             [-1, 16, 7, 7]           2,320
      BatchNorm2d-37             [-1, 16, 7, 7]              32
             ReLU-38             [-1, 16, 7, 7]               0
           Conv2d-39             [-1, 16, 7, 7]           2,320
      BatchNorm2d-40             [-1, 16, 7, 7]              32
             ReLU-41             [-1, 16, 7, 7]               0
           Conv2d-42             [-1, 16, 7, 7]           2,320
      BatchNorm2d-43             [-1, 16, 7, 7]              32
             ReLU-44             [-1, 16, 7, 7]               0
           Conv2d-45             [-1, 16, 7, 7]           2,320
      BatchNorm2d-46             [-1, 16, 7, 7]              32
             ReLU-47             [-1, 16, 7, 7]               0
           Linear-48                 [-1, 4096]       3,215,360
             ReLU-49                 [-1, 4096]               0
           Linear-50                 [-1, 4096]      16,781,312
             ReLU-51                 [-1, 4096]               0
           Linear-52                 [-1, 4096]      16,781,312
             ReLU-53                 [-1, 4096]               0
           Linear-54                   [-1, 10]          40,970
================================================================
Total params: 36,850,202
Trainable params: 36,850,202
Non-trainable params: 0
----------------------------------------------------------------
Input size (MB): 0.00
Forward/backward pass size (MB): 1.24
Params size (MB): 140.57
Estimated Total Size (MB): 141.82
----------------------------------------------------------------
Epoch: [ 1/ 10], Step: [ 100/ 600], Loss: 2.2968
…
