learning rate: 0.001000
enable cuda is 1 device is cuda
----------------------------------------------------------------
        Layer (type)               Output Shape         Param #
================================================================
            Conv2d-1            [-1, 4, 28, 28]              40
       BatchNorm2d-2            [-1, 4, 28, 28]               8
              ReLU-3            [-1, 4, 28, 28]               0
         MaxPool2d-4            [-1, 4, 14, 14]               0
            Conv2d-5           [-1, 16, 14, 14]             592
       BatchNorm2d-6           [-1, 16, 14, 14]              32
              ReLU-7           [-1, 16, 14, 14]               0
            Conv2d-8           [-1, 16, 14, 14]           2,320
       BatchNorm2d-9           [-1, 16, 14, 14]              32
             ReLU-10           [-1, 16, 14, 14]               0
           Conv2d-11           [-1, 16, 14, 14]           2,320
      BatchNorm2d-12           [-1, 16, 14, 14]              32
             ReLU-13           [-1, 16, 14, 14]               0
           Conv2d-14           [-1, 16, 14, 14]           2,320
      BatchNorm2d-15           [-1, 16, 14, 14]              32
             ReLU-16           [-1, 16, 14, 14]               0
           Conv2d-17           [-1, 16, 14, 14]           2,320
      BatchNorm2d-18           [-1, 16, 14, 14]              32
             ReLU-19           [-1, 16, 14, 14]               0
           Conv2d-20           [-1, 16, 14, 14]           2,320
      BatchNorm2d-21           [-1, 16, 14, 14]              32
             ReLU-22           [-1, 16, 14, 14]               0
           Conv2d-23           [-1, 16, 14, 14]           2,320
      BatchNorm2d-24           [-1, 16, 14, 14]              32
             ReLU-25           [-1, 16, 14, 14]               0
           Conv2d-26           [-1, 16, 14, 14]           2,320
      BatchNorm2d-27           [-1, 16, 14, 14]              32
             ReLU-28           [-1, 16, 14, 14]               0
           Conv2d-29           [-1, 16, 14, 14]           2,320
      BatchNorm2d-30           [-1, 16, 14, 14]              32
             ReLU-31           [-1, 16, 14, 14]               0
           Conv2d-32           [-1, 16, 14, 14]           2,320
      BatchNorm2d-33           [-1, 16, 14, 14]              32
             ReLU-34           [-1, 16, 14, 14]               0
           Conv2d-35           [-1, 16, 14, 14]           2,320
      BatchNorm2d-36           [-1, 16, 14, 14]              32
             ReLU-37           [-1, 16, 14, 14]               0
           Conv2d-38           [-1, 16, 14, 14]           2,320
      BatchNorm2d-39           [-1, 16, 14, 14]              32
             ReLU-40           [-1, 16, 14, 14]               0
           Conv2d-41           [-1, 16, 14, 14]           2,320
      BatchNorm2d-42           [-1, 16, 14, 14]              32
             ReLU-43           [-1, 16, 14, 14]               0
           Conv2d-44           [-1, 16, 14, 14]           2,320
      BatchNorm2d-45           [-1, 16, 14, 14]              32
             ReLU-46           [-1, 16, 14, 14]               0
           Conv2d-47           [-1, 16, 14, 14]           2,320
      BatchNorm2d-48           [-1, 16, 14, 14]              32
             ReLU-49           [-1, 16, 14, 14]               0
           Conv2d-50           [-1, 16, 14, 14]           2,320
      BatchNorm2d-51           [-1, 16, 14, 14]              32
             ReLU-52           [-1, 16, 14, 14]               0
           Conv2d-53           [-1, 16, 14, 14]           2,320
      BatchNorm2d-54           [-1, 16, 14, 14]              32
             ReLU-55           [-1, 16, 14, 14]               0
           Linear-56                   [-1, 10]          31,370
================================================================
Total params: 69,674
Trainable params: 69,674
Non-trainable params: 0
----------------------------------------------------------------
Input size (MB): 0.00
Forward/backward pass size (MB): 1.30
Params size (MB): 0.27
Estimated Total Size (MB): 1.57
----------------------------------------------------------------
Epoch: [ 1/ 10], Step: [ 100/ 600], Loss: 2.1776
…
