learning rate: 0.010000
enable cuda is 1 device is cuda
----------------------------------------------------------------
        Layer (type)               Output Shape         Param #
================================================================
            Conv2d-1            [-1, 4, 28, 28]              40
       BatchNorm2d-2            [-1, 4, 28, 28]               8
              ReLU-3            [-1, 4, 28, 28]               0
         MaxPool2d-4            [-1, 4, 14, 14]               0
            Linear-5                 [-1, 4096]       3,215,360
              ReLU-6                 [-1, 4096]               0
            Linear-7                 [-1, 4096]      16,781,312
              ReLU-8                 [-1, 4096]               0
            Linear-9                 [-1, 4096]      16,781,312
             ReLU-10                 [-1, 4096]               0
           Linear-11                 [-1, 4096]      16,781,312
             ReLU-12                 [-1, 4096]               0
           Linear-13                 [-1, 4096]      16,781,312
             ReLU-14                 [-1, 4096]               0
           Linear-15                 [-1, 4096]      16,781,312
             ReLU-16                 [-1, 4096]               0
           Linear-17                 [-1, 4096]      16,781,312
             ReLU-18                 [-1, 4096]               0
           Linear-19                 [-1, 4096]      16,781,312
             ReLU-20                 [-1, 4096]               0
           Linear-21                 [-1, 4096]      16,781,312
             ReLU-22                 [-1, 4096]               0
           Linear-23                 [-1, 4096]      16,781,312
             ReLU-24                 [-1, 4096]               0
           Linear-25                 [-1, 4096]      16,781,312
             ReLU-26                 [-1, 4096]               0
           Linear-27                 [-1, 4096]      16,781,312
             ReLU-28                 [-1, 4096]               0
           Linear-29                 [-1, 4096]      16,781,312
             ReLU-30                 [-1, 4096]               0
           Linear-31                 [-1, 4096]      16,781,312
             ReLU-32                 [-1, 4096]               0
           Linear-33                 [-1, 4096]      16,781,312
             ReLU-34                 [-1, 4096]               0
           Linear-35                 [-1, 4096]      16,781,312
             ReLU-36                 [-1, 4096]               0
           Linear-37                 [-1, 4096]      16,781,312
             ReLU-38                 [-1, 4096]               0
           Linear-39                   [-1, 10]          40,970
================================================================
Total params: 271,757,370
Trainable params: 271,757,370
Non-trainable params: 0
----------------------------------------------------------------
Input size (MB): 0.00
Forward/backward pass size (MB): 1.14
Params size (MB): 1036.67
Estimated Total Size (MB): 1037.82
----------------------------------------------------------------
Epoch: [ 1/ 10], Step: [ 100/ 600], Loss: 2.3042
…
