…
    (conv11): Conv2d(16, 16, kernel_size=(3, 3), stride=(1, 1), padding=(1, 1))
    (bn11): BatchNorm2d(16, eps=1e-05, momentum=0.1, affine=True, track_running_stats=True)
    (relu11): ReLU()
    (conv12): Conv2d(16, 16, kernel_size=(3, 3), stride=(1, 1), padding=(1, 1))
    (bn12): BatchNorm2d(16, eps=1e-05, momentum=0.1, affine=True, track_running_stats=True)
    (relu12): ReLU()
  )
  (lin): Linear(in_features=784, out_features=10, bias=True)
)
----------------------------------------------------------------
        Layer (type)               Output Shape         Param #
================================================================
            Conv2d-1            [-1, 4, 28, 28]              40
       BatchNorm2d-2            [-1, 4, 28, 28]               8
              ReLU-3            [-1, 4, 28, 28]               0
            Conv2d-4           [-1, 16, 28, 28]             592
       BatchNorm2d-5           [-1, 16, 28, 28]              32
              ReLU-6           [-1, 16, 28, 28]               0
            Conv2d-7           [-1, 16, 28, 28]           2,320
       BatchNorm2d-8           [-1, 16, 28, 28]              32
              ReLU-9           [-1, 16, 28, 28]               0
        MaxPool2d-10           [-1, 16, 14, 14]               0
           Conv2d-11           [-1, 16, 14, 14]           2,320
      BatchNorm2d-12           [-1, 16, 14, 14]              32
             ReLU-13           [-1, 16, 14, 14]               0
           Conv2d-14           [-1, 16, 14, 14]           2,320
      BatchNorm2d-15           [-1, 16, 14, 14]              32
             ReLU-16           [-1, 16, 14, 14]               0
           Conv2d-17           [-1, 16, 14, 14]           2,320
      BatchNorm2d-18           [-1, 16, 14, 14]              32
             ReLU-19           [-1, 16, 14, 14]               0
        MaxPool2d-20             [-1, 16, 7, 7]               0
           Conv2d-21             [-1, 16, 7, 7]           2,320
      BatchNorm2d-22             [-1, 16, 7, 7]              32
             ReLU-23             [-1, 16, 7, 7]               0
           Conv2d-24             [-1, 16, 7, 7]           2,320
      BatchNorm2d-25             [-1, 16, 7, 7]              32
             ReLU-26             [-1, 16, 7, 7]               0
           Conv2d-27             [-1, 16, 7, 7]           2,320
      BatchNorm2d-28             [-1, 16, 7, 7]              32
             ReLU-29             [-1, 16, 7, 7]               0
           Conv2d-30             [-1, 16, 7, 7]           2,320
      BatchNorm2d-31             [-1, 16, 7, 7]              32
             ReLU-32             [-1, 16, 7, 7]               0
           Conv2d-33             [-1, 16, 7, 7]           2,320
      BatchNorm2d-34             [-1, 16, 7, 7]              32
             ReLU-35             [-1, 16, 7, 7]               0
           Conv2d-36             [-1, 16, 7, 7]           2,320
      BatchNorm2d-37             [-1, 16, 7, 7]              32
             ReLU-38             [-1, 16, 7, 7]               0
           Linear-39                   [-1, 10]           7,850
================================================================
Total params: 32,042
Trainable params: 32,042
Non-trainable params: 0
----------------------------------------------------------------
Input size (MB): 0.00
Forward/backward pass size (MB): 1.00
Params size (MB): 0.12
Estimated Total Size (MB): 1.12
----------------------------------------------------------------
Epoch: [ 1/ 10], Step: [ 100/ 600], Loss: 1.7816
…
