…
  (lin9): Linear(in_features=4096, out_features=4096, bias=True)
  (relu9): ReLU()
  (lin10): Linear(in_features=4096, out_features=4096, bias=True)
  (relu10): ReLU()
  (lin11): Linear(in_features=4096, out_features=4096, bias=True)
  (relu11): ReLU()
  (lin12): Linear(in_features=4096, out_features=4096, bias=True)
  (relu12): ReLU()
  (lin): Linear(in_features=4096, out_features=10, bias=True)
)
----------------------------------------------------------------
        Layer (type)               Output Shape         Param #
================================================================
            Conv2d-1            [-1, 4, 28, 28]              40
       BatchNorm2d-2            [-1, 4, 28, 28]               8
              ReLU-3            [-1, 4, 28, 28]               0
            Conv2d-4           [-1, 16, 28, 28]             592
       BatchNorm2d-5           [-1, 16, 28, 28]              32
              ReLU-6           [-1, 16, 28, 28]               0
            Conv2d-7           [-1, 16, 28, 28]           2,320
       BatchNorm2d-8           [-1, 16, 28, 28]              32
              ReLU-9           [-1, 16, 28, 28]               0
           Conv2d-10           [-1, 16, 28, 28]              32
      BatchNorm2d-11           [-1, 16, 28, 28]              32
        MaxPool2d-12           [-1, 16, 14, 14]               0
           Conv2d-13           [-1, 16, 14, 14]           2,320
      BatchNorm2d-14           [-1, 16, 14, 14]              32
             ReLU-15           [-1, 16, 14, 14]               0
           Conv2d-16           [-1, 16, 14, 14]           2,320
      BatchNorm2d-17           [-1, 16, 14, 14]              32
             ReLU-18           [-1, 16, 14, 14]               0
           Conv2d-19           [-1, 16, 14, 14]           2,320
      BatchNorm2d-20           [-1, 16, 14, 14]              32
             ReLU-21           [-1, 16, 14, 14]               0
         Identity-22           [-1, 16, 14, 14]               0
        MaxPool2d-23             [-1, 16, 7, 7]               0
           Conv2d-24             [-1, 16, 7, 7]           2,320
      BatchNorm2d-25             [-1, 16, 7, 7]              32
             ReLU-26             [-1, 16, 7, 7]               0
           Linear-27                 [-1, 4096]       3,215,360
             ReLU-28                 [-1, 4096]               0
           Linear-29                 [-1, 4096]      16,781,312
             ReLU-30                 [-1, 4096]               0
           Linear-31                 [-1, 4096]      16,781,312
             ReLU-32                 [-1, 4096]               0
           Linear-33                 [-1, 4096]      16,781,312
             ReLU-34                 [-1, 4096]               0
           Linear-35                 [-1, 4096]      16,781,312
             ReLU-36                 [-1, 4096]               0
           Linear-37                   [-1, 10]          40,970
================================================================
Total params: 70,394,074
Trainable params: 70,394,074
Non-trainable params: 0
----------------------------------------------------------------
Input size (MB): 0.00
Forward/backward pass size (MB): 1.44
Params size (MB): 268.53
Estimated Total Size (MB): 269.97
----------------------------------------------------------------
Epoch: [ 1/ 10], Step: [ 100/ 600], Loss: 2.2941
…
